engine_anomaly_detector.tflite (tflite, 309180 bytes, 15 tensors)

arith.constant13 f2 [64]
0	0xae62	-0.09973
1	0xa112	-0.0099
2	0x309d	0.1442
3	0x2c07	0.0629
4	0xac6a	-0.069
5	0xac32	-0.06555
6	0x27db	0.03069
7	0xa4f8	-0.01941
8	0x2fed	0.12384
9	0x30cc	0.1499
10	0xa060	-0.008545
11	0x2ec7	0.1059
12	0x2be3	0.0616
13	0x1433	0.001025
14	0x2af0	0.0542
15	0x3039	0.132
16	0xa571	-0.02126
17	0xac76	-0.0697
18	0xaa9c	-0.05164
19	0xab6b	-0.05795
20	0x2db6	0.08923
21	0xad00	-0.0781
22	0xadf4	-0.093
23	0x2c99	0.07184
24	0x312d	0.1617
25	0xa050	-0.00842
26	0x2a5e	0.04974
27	0x2aa7	0.05197
28	0xa64e	-0.02463
29	0xaa4a	-0.04913
30	0xad85	-0.08624
31	0x304e	0.1345
32	0x20d7	0.00945
33	0x2f9e	0.119
34	0x2334	0.01407
35	0xacb8	-0.0737
36	0xab04	-0.0548
37	0x22f2	0.013565
38	0x9ea1	-0.006474
39	0x2c14	0.0637
40	0x2d53	0.0832
41	0x1d21	0.00501
42	0xa498	-0.01794
43	0x2a32	0.0484
44	0x301e	0.1287
45	0x3015	0.1276
46	0x307a	0.1399
47	0xa98d	-0.04337
48	0x2cd7	0.0756
49	0x3100	0.1562
50	0xaa0f	-0.04733
51	0xa405	-0.0157
52	0xac10	-0.0635
53	0xab0e	-0.0551
54	0x2a62	0.04987
55	0xa48c	-0.01776
56	0x2260	0.01245
57	0xa453	-0.01689
58	0xa81e	-0.03217
59	0xa4ad	-0.01826
60	0x2f4d	0.1141
61	0xae9f	-0.10345
62	0x2d94	0.08716
63	0x3051	0.1349

arith.constant14 f2 [64, 32]
0	0x2664	0.02496
1	0x3258	0.1982
2	0x313a	0.1633
3	0xa9bb	-0.04477
4	0x3417	0.2556
5	0xb272	-0.2014
6	0x3391	0.2365
7	0xb1b2	-0.178
8	0xad59	-0.08356
9	0xb268	-0.2002
10	0xaea4	-0.10376
11	0x3076	0.1394
12	0x2252	0.012344
13	0xaa82	-0.05084
14	0xac0d	-0.0633
15	0x20ad	0.00913
16	0xb42c	-0.2607
17	0x35fc	0.374
18	0xb248	-0.1963
19	0x9cce	-0.004692
20	0xae4a	-0.09827
21	0xb2c7	-0.2118
22	0x2ee8	0.1079
23	0xb06f	-0.1385
24	0x2cc5	0.0745
25	0x328e	0.2048
26	0x3113	0.1586
27	0xb46b	-0.2761
28	0x3566	0.3374
29	0x9965	-0.002634
30	0x309a	0.1438
31	0x9d57	-0.005215
32	0x2ee3	0.1076
33	0xb4ee	-0.308
34	0xb157	-0.1669
35	0xaa7f	-0.05075
36	0xad32	-0.0812
37	0xb27c	-0.2026
38	0xb01e	-0.1287
39	0x3389	0.2355
40	0xaf19	-0.1109
41	0x2c3d	0.0662
42	0x31e7	0.1844
43	0xb218	-0.1904
44	0x329f	0.2069
45	0xadd3	-0.091
46	0xb0d0	-0.1504
47	0xb4e7	-0.3064
48	0xb352	-0.2288
49	0xaae0	-0.0537
50	0xace2	-0.0763
51	0x2d29	0.0806
52	0x26ed	0.02705
53	0xb006	-0.1257
54	0xaee5	-0.1077
55	0xab8a	-0.0589
56	0x2255	0.01237
57	0x3157	0.1669
58	0xb258	-0.1982
59	0x3376	0.2332
60	0x30b9	0.1476
61	0x2f51	0.1143
62	0xa90d	-0.03946
63	0x2b28	0.0559
64	0x3223	0.1918
65	0x3200	0.1875
66	0x31c9	0.1808
67	0x2faa	0.11975
68	0xa6d7	-0.02672
69	0xb3b1	-0.2404
70	0x2740	0.02832
71	0xa7c0	-0.03027
72	0x30e9	0.1534
73	0xacd6	-0.07556
74	0x1f6c	0.007248
75	0xa64a	-0.02457
76	0xad23	-0.08026
77	0x27cc	0.03046
78	0xb461	-0.2737
79	0x2d8a	0.08655
80	0xafd4	-0.1223
81	0x31f4	0.186
82	0xb4f2	-0.309
83	0xb041	-0.1329
84	0x2d9a	0.0875
85	0xb10a	-0.1575
86	0xa4a6	-0.01816
87	0xb165	-0.1686
88	0xa9c6	-0.0451
89	0x333c	0.2261
90	0x3383	0.2347
91	0xad47	-0.08246
92	0x2e5e	0.0995
93	0xaef5	-0.1087
94	0xa94b	-0.04135
95	0x282e	0.03265
96	0x2db3	0.08905
97	0x2cb0	0.07324
98	0xa9ee	-0.04633
99	0x3088	0.1416
100	0x22ba	0.01314
101	0x2ccb	0.0749
102	0x1bed	0.00387
103	0x2ec6	0.10583
104	0xb446	-0.267
105	0x3052	0.135
106	0xa416	-0.01596
107	0xae75	-0.1009
108	0xb261	-0.1993
109	0x3372	0.2327
110	0x3238	0.1943
111	0x2d1f	0.08
112	0xb140	-0.1641
113	0x2ac4	0.05286
114	0x316b	0.1693
115	0x9f93	-0.007397
116	0xb128	-0.1611
117	0xb469	-0.2756
118	0x32aa	0.2083
119	0x3115	0.1588
120	0x2472	0.01736
121	0x281c	0.0321
122	0xa9f7	-0.0466
123	0x30f1	0.1544
124	0xaf9d	-0.11896
125	0x361a	0.3813
126	0x3396	0.237
127	0x2e03	0.09393
128	0x32d9	0.214
129	0x2450	0.01685
130	0x2e67	0.10004
131	0x32cc	0.2124
132	0x308d	0.1422
133	0xaee2	-0.10754
134	0x3482	0.2817
135	0xb0f9	-0.1554
136	0x9033	-0.0005126
137	0xb38e	-0.2361
138	0x2998	0.0437
139	0xab76	-0.0583
140	0xb1f1	-0.1857
141	0x3107	0.1571
142	0xb27f	-0.203
143	0xb269	-0.2003
144	0x26b7	0.02623
145	0x343b	0.2644
146	0xb191	-0.174
147	0xa4f5	-0.01936
148	0xb1f8	-0.1865
149	0xaf59	-0.1148
150	0xaa66	-0.05
151	0xb4be	-0.2964
152	0xb303	-0.2191
153	0x2d3f	0.082
154	0x2e59	0.0992
155	0xb4a5	-0.2903
156	0x34af	0.2927
157	0xad66	-0.08435
158	0x3675	0.4036
159	0x2f8d	0.118
160	0xb0c8	-0.1494
161	0x21e5	0.01151
162	0xb074	-0.1392
163	0xb371	-0.2325
164	0x316c	0.1694
165	0xb111	-0.1583
166	0xa648	-0.02454
167	0x2e51	0.0987
168	0x2caa	0.0729
169	0x2f3a	0.1129
170	0x3521	0.3206
171	0xb5aa	-0.354
172	0x3407	0.2517
173	0x34dc	0.3037
174	0x26c7	0.02647
175	0xb0fd	-0.1559
176	0xb03d	-0.1324
177	0x2913	0.03964
178	0xb2c1	-0.211
179	0xb09d	-0.1442
180	0xaabd	-0.05264
181	0xacd3	-0.0754
182	0xae06	-0.0941
183	0x3067	0.1376
184	0xb481	-0.2815
185	0x1b34	0.003517
186	0xae01	-0.0938
187	0x2944	0.04114
188	0x2a34	0.04846
189	0x338c	0.2358
190	0xad66	-0.08435
191	0xa844	-0.03333
192	0xab82	-0.05865
193	0xb299	-0.2062
194	0xadd1	-0.0909
195	0x2794	0.0296
196	0xa98d	-0.04337
197	0xb38a	-0.2356
198	0x2f5f	0.1152
199	0x341b	0.2566
200	0x339e	0.238
201	0x292b	0.04037
202	0x3369	0.2316
203	0xb5a4	-0.3525
204	0x3171	0.17
205	0x3512	0.317
206	0xadfb	-0.09344
207	0x29e5	0.04605
208	0xb495	-0.2864
209	0xb087	-0.1415
210	0xae82	-0.1017
211	0xb47c	-0.2803
212	0xac7e	-0.0702
213	0xaee7	-0.10785
214	0x2892	0.0357
215	0xaeef	-0.10834
216	0xafb1	-0.1202
217	0xaa5d	-0.0497
218	0xb2d2	-0.2131
219	0x3068	0.1377
220	0x2d2a	0.0807
221	0xb41b	-0.2566
222	0x285f	0.03415
223	0xafbd	-0.1209
224	0x2eff	0.1093
225	0x22b4	0.01309
226	0x33fc	0.2495
227	0xaedb	-0.1071
228	0xa918	-0.0398
229	0x29f7	0.0466
230	0x2e4b	0.0983
231	0x3036	0.1316
232	0xabb8	-0.0603
233	0x2a2b	0.0482
234	0xac37	-0.06586
235	0x2e0b	0.0944
236	0x316f	0.1698
237	0xae62	-0.09973
238	0xb497	-0.2869
239	0xaddc	-0.09155
240	0xa7ae	-0.03
241	0x31d4	0.1821
242	0x26f1	0.02711
243	0x307c	0.1401
244	0xa1f9	-0.011665
245	0xb56f	-0.3396
246	0xaebd	-0.1053
247	0xb1ff	-0.1874
248	0x311b	0.1595
249	0xa2df	-0.01342
250	0x993e	-0.00256
251	0xacb5	-0.07355
252	0x326a	0.2004
253	0xa7aa	-0.02994
254	0x2f1d	0.11115
255	0xb094	-0.1431

arith.constant18 f2 [32]
0	0xb9f0	-0.742
1	0x39fa	0.747
2	0xb9c7	-0.722
3	0xb4c9	-0.299
4	0x408e	2.277
5	0x3fdb	1.964
6	0x4055	2.166
7	0xb12d	-0.1617
8	0x3afa	0.872
9	0xb57e	-0.3433
10	0x3acc	0.8496
11	0x3fcf	1.952
12	0x3b54	0.916
13	0x397e	0.6865
14	0x406b	2.209
15	0x3d0a	1.26
16	0x4049	2.143
17	0x4284	3.258
18	0x3873	0.556
19	0x3c7e	1.123
20	0x368a	0.4087
21	0x4181	2.752
22	0x434c	3.648
23	0xbc64	-1.098
24	0xacc7	-0.07465
25	0x4128	2.578
26	0x3924	0.6426
27	0x3984	0.6895
28	0xbabc	-0.842
29	0x3ebe	1.686
30	0x3d66	1.35
31	0xb9b1	-0.7114

arith.constant19 f2 [32, 64]
0	0xbb3b	-0.904
1	0x363e	0.3901
2	0x326d	0.2008
3	0x3c57	1.085
4	0x3795	0.4739
5	0x3719	0.4436
6	0x3422	0.2583
7	0xb9d5	-0.729
8	0x30f4	0.1548
9	0x3223	0.1918
10	0xbd7d	-1.372
11	0xa787	-0.0294
12	0xb1d3	-0.182
13	0x3911	0.6333
14	0xb3f1	-0.2482
15	0xb7ab	-0.4792
16	0xb88e	-0.5693
17	0x450b	5.043
18	0x33ab	0.2396
19	0x3c44	1.066
20	0x346b	0.2761
21	0xc0b8	-2.36
22	0x2835	0.03287
23	0x3668	0.4004
24	0x33d0	0.2441
25	0xb933	-0.65
26	0xbd2b	-1.292
27	0xbcfc	-1.246
28	0x2fec	0.1238
29	0x45d7	5.84
30	0x37a5	0.4778
31	0xb367	-0.2313
32	0xad1d	-0.0799
33	0x353f	0.328
34	0xad35	-0.08136
35	0xaca9	-0.0728
36	0x3a61	0.7974
37	0x41c7	2.889
38	0x3768	0.463
39	0x15b7	0.001395
40	0xb9b0	-0.711
41	0xbfbe	-1.936
42	0x3996	0.698
43	0x3778	0.4668
44	0x341b	0.2566
45	0x384b	0.5366
46	0x3596	0.349
47	0xba38	-0.7773
48	0x3224	0.1919
49	0x3803	0.5015
50	0x30a3	0.1449
51	0xb849	-0.5356
52	0x2fcd	0.1219
53	0x3d7d	1.372
54	0x286e	0.0346
55	0xbafb	-0.8726
56	0x3c0e	1.014
57	0xa6b8	-0.02625
58	0x3f51	1.829
59	0x3ac5	0.846
60	0x366e	0.4019
61	0xc6c0	-6.75
62	0xb464	-0.2744
63	0xbb11	-0.8833
64	0xbdbb	-1.433
65	0x299c	0.04382
66	0x2fc3	0.1213
67	0x3d3d	1.31
68	0x3ad2	0.8525
69	0xb7ec	-0.495
70	0xaf84	-0.11743
71	0x3cc6	1.193
72	0xbcb8	-1.18
73	0xb317	-0.2216
74	0x39c8	0.7227
75	0xb33a	-0.2258
76	0x3a87	0.816
77	0x2437	0.01646
78	0x3381	0.2345
79	0xb433	-0.2625
80	0x3936	0.6514
81	0xc05f	-2.186
82	0x3a0d	0.7563
83	0x3acd	0.85
84	0xb972	-0.6807
85	0xb764	-0.462
86	0xa902	-0.03912
87	0x3a35	0.776
88	0x203d	0.00828
89	0x39f8	0.746
90	0x3c28	1.039
91	0x39ce	0.7256
92	0xac88	-0.0708
93	0x41f3	2.975
94	0xa774	-0.02911
95	0xacef	-0.0771
96	0xb878	-0.5586
97	0xbbb5	-0.9634
98	0x323d	0.195
99	0xb6ec	-0.4326
100	0xbc77	-1.116
101	0x41e1	2.94
102	0x3a3a	0.7783
103	0x36a9	0.4163
104	0x2f11	0.1104
105	0xb71c	-0.4443
106	0xbb96	-0.948
107	0x39a4	0.705
108	0xba1f	-0.765
109	0xbcd7	-1.21
110	0xbb5f	-0.9214
111	0x38dd	0.608
112	0x3567	0.3376
113	0x31c0	0.1797
114	0xb303	-0.2191
115	0x28da	0.0379
116	0x28a9	0.0364
117	0xb8b0	-0.586
118	0x3dd1	1.454
119	0x3137	0.163
120	0xa4cd	-0.01875
121	0x3d89	1.384
122	0x3b8a	0.9424
123	0x3c1f	1.03
124	0xb828	-0.5195
125	0xa0a5	-0.00907
126	0x3078	0.1396
127	0x39d3	0.728
128	0xbb38	-0.9023
129	0x39f6	0.745
130	0x2e4c	0.0984
131	0x3c4f	1.077
132	0xb552	-0.3325
133	0x94ad	-0.001142
134	0x2cc7	0.07465
135	0xb37c	-0.2339
136	0x3843	0.5327
137	0xb4e9	-0.307
138	0xb70c	-0.4404
139	0xb866	-0.55
140	0xb826	-0.5186
141	0x3924	0.6426
142	0x3b04	0.877
143	0xbc24	-1.035
144	0x2f49	0.11383
145	0xb8f4	-0.619
146	0xbddb	-1.464
147	0x3b38	0.9023
148	0xb6e0	-0.4297
149	0x4204	3.008
150	0x3462	0.274
151	0x2ef8	0.1089
152	0xb494	-0.2861
153	0xaf40	-0.1133
154	0x2cc5	0.0745
155	0xbd20	-1.281
156	0xb24d	-0.1969
157	0xb331	-0.2247
158	0xa6ee	-0.02707
159	0x385f	0.5464
160	0x3d6e	1.357
161	0xb884	-0.5645
162	0xb7b5	-0.4817
163	0x349e	0.2886
164	0x3d1b	1.276
165	0xbda7	-1.413
166	0x380a	0.505
167	0x2d4e	0.0829
168	0xb397	-0.2372
169	0xace2	-0.0763
170	0xae0e	-0.0946
171	0x3a33	0.775
172	0xb6db	-0.4285
173	0x3a4b	0.7866
174	0xb6c1	-0.422
175	0x3b78	0.9336
176	0xac51	-0.06744
177	0x39ef	0.7417
178	0x3c47	1.069
179	0x3952	0.665
180	0xa5b6	-0.02231
181	0xb834	-0.5254
182	0x3c57	1.085
183	0x33aa	0.2395
184	0xafe4	-0.1233
185	0xb63d	-0.39
186	0x3166	0.1687
187	0x3d59	1.337
188	0x3050	0.1348
189	0xc7e0	-7.875
190	0x38cb	0.599
191	0x3a92	0.8213
192	0xb654	-0.3955
193	0x3603	0.3757
194	0xb860	-0.547
195	0xbb2b	-0.896
196	0xb954	-0.666
197	0x38a2	0.579
198	0x3632	0.3872
199	0xb8c1	-0.594
200	0x8cf4	-0.0003023
201	0xb335	-0.2252
202	0x2b7d	0.0585
203	0xb7d0	-0.4883
204	0xb857	-0.5425
205	0x3b51	0.9146
206	0xb444	-0.2666
207	0xbb04	-0.877
208	0xbef8	-1.742
209	0xbdaf	-1.421
210	0xbde8	-1.477
211	0x3ad1	0.852
212	0xb9d7	-0.73
213	0x4592	5.57
214	0x39bb	0.7163
215	0x3a29	0.77
216	0xb27a	-0.2024
217	0x374e	0.4565
218	0x32ea	0.2161
219	0xba1c	-0.7637
220	0xb40c	-0.253
221	0xc040	-2.125
222	0xb80a	-0.505
223	0xb579	-0.342
224	0x3973	0.681
225	0x3248	0.1963
226	0xbd6a	-1.354
227	0x3a0e	0.757
228	0xb4f8	-0.3105
229	0xb5dc	-0.3662
230	0x3c09	1.009
231	0xbb9f	-0.9526
232	0x3c28	1.039
233	0x3f94	1.895
234	0x35c8	0.3613
235	0x35a8	0.3535
236	0x390a	0.63
237	0x39ba	0.716
238	0x2c1e	0.06433
239	0xb82c	-0.5215
240	0xb10c	-0.1577
241	0x3b91	0.946
242	0x35e8	0.3691
243	0x32a7	0.2079
244	0x333c	0.2261
245	0x3a35	0.776
246	0x3938	0.6523
247	0xb5b3	-0.3562
248	0x3735	0.4504
249	0x373c	0.4521
250	0x3533	0.325
251	0x3dea	1.479
252	0xba48	-0.785
253	0x3dee	1.482
254	0x2f84	0.11743
255	0x3c9e	1.154

arith.constant20 f2 [5]
0	0x3acb	0.849
1	0xbd5d	-1.341
2	0xc030	-2.094
3	0x3c16	1.021
4	0xbc1e	-1.029

arith.constant21 f2 [5, 32]
0	0xaf94	-0.1184
1	0xb4b4	-0.294
2	0xae6c	-0.10034
3	0x2cca	0.0748
4	0x3864	0.549
5	0x34e7	0.3064
6	0x30d3	0.1508
7	0xa6cd	-0.02657
8	0x24b5	0.01839
9	0x2e0a	0.09436
10	0xaa1d	-0.04776
11	0xa84c	-0.03357
12	0xb405	-0.2512
13	0xb125	-0.1608
14	0xa2c0	-0.01318
15	0x3055	0.1354
16	0x2259	0.0124
17	0x2c56	0.06775
18	0xae5d	-0.0994
19	0xaec4	-0.1057
20	0xb28d	-0.2047
21	0x2e9f	0.10345
22	0x349b	0.2878
23	0xac39	-0.066
24	0xa9b0	-0.04443
25	0x32b8	0.21
26	0x265a	0.02481
27	0xae68	-0.1001
28	0xae4c	-0.0984
29	0x28ff	0.03903
30	0xaac3	-0.05283
31	0xadfb	-0.09344
32	0x2c46	0.0668
33	0x31b2	0.178
34	0xa4cd	-0.01875
35	0x2ffd	0.1248
36	0xb6c0	-0.4219
37	0xb5bf	-0.3591
38	0xafc9	-0.12164
39	0x3061	0.1368
40	0xb5b8	-0.3574
41	0xb06d	-0.1383
42	0xacf2	-0.0773
43	0xb49c	-0.288
44	0x3263	0.1996
45	0x34b1	0.2932
46	0x3359	0.2296
47	0xb0cb	-0.1498
48	0xb40d	-0.2532
49	0x31f5	0.1862
50	0x308f	0.1425
51	0xb06a	-0.138
52	0x3137	0.163
53	0xb718	-0.4434
54	0x3378	0.2334
55	0xab8b	-0.05893
56	0x3530	0.3242
57	0x34fe	0.312
58	0x3441	0.2659
59	0x300c	0.1265
60	0xa294	-0.01285
61	0x35a5	0.3528
62	0xb472	-0.2778
63	0xb028	-0.1299
64	0x378d	0.472
65	0xb040	-0.1328
66	0x292e	0.04047
67	0x31bd	0.1793
68	0xb9c2	-0.7197
69	0x2fb5	0.1204
70	0x35f0	0.371
71	0x28b5	0.03677
72	0xb61e	-0.3823
73	0x2d70	0.08496
74	0x355e	0.3354
75	0x3395	0.2369
76	0xadcf	-0.09076
77	0x324f	0.1971
78	0xb3ed	-0.2477
79	0x30bd	0.1481
80	0xb48e	-0.2847
81	0xb363	-0.2308
82	0x357c	0.3428
83	0x303f	0.1327
84	0xa791	-0.02956
85	0xb77a	-0.4673
86	0xb0b1	-0.1466
87	0x1807	0.001966
88	0x2c7c	0.07007
89	0xb35a	-0.2297
90	0x2ec9	0.106
91	0xa93f	-0.041
92	0x351f	0.32
93	0xacf3	-0.07733
94	0x2dd7	0.09125
95	0x361f	0.3826
96	0xb01b	-0.1283
97	0xb433	-0.2625
98	0xae8f	-0.1025
99	0x2cb5	0.07355
100	0x3870	0.5547
101	0x3426	0.2593
102	0xa675	-0.02522
103	0xa29c	-0.01291
104	0x340e	0.2534
105	0xaa2f	-0.0483
106	0x3098	0.1436
107	0xb343	-0.2269
108	0xb3d5	-0.2448
109	0xb08c	-0.1421
110	0x3265	0.1998
111	0x34c2	0.2974
112	0xaee5	-0.1077
113	0xada0	-0.0879
114	0xaff4	-0.12427
115	0x3111	0.1583
116	0xb29f	-0.2069
117	0x2149	0.01032
118	0x319a	0.175
119	0xab03	-0.05478
120	0xa920	-0.04004
121	0x28d9	0.03787
122	0x1c87	0.00442
123	0xaf14	-0.1106
124	0xadab	-0.08856
125	0xad01	-0.0782
126	0xb31a	-0.2219
127	0xae67	-0.10004
128	0x2d2d	0.0809
129	0x2eb6	0.10486
130	0x35e2	0.3677
131	0x36d7	0.4275
132	0xb3f9	-0.2491
133	0xb344	-0.227
134	0xa398	-0.01483
135	0x3668	0.4004
136	0xaf5a	-0.11487
137	0x35e3	0.368
138	0x1976	0.002666
139	0xb43f	-0.2654
140	0x32ac	0.2085
141	0xa745	-0.0284
142	0xb18e	-0.1736
143	0xb0e0	-0.1523
144	0x33de	0.2458
145	0xb50b	-0.3152
146	0xa846	-0.0334
147	0xb15a	-0.1672
148	0x30d2	0.1506
149	0xb459	-0.2717
150	0xb4d8	-0.3027
151	0x32a5	0.2076
152	0x275b	0.02873
153	0xb1c2	-0.1799
154	0x3608	0.377
155	0x34d3	0.3015
156	0x1aa0	0.003235
157	0x2ec0	0.10547
158	0xb0d8	-0.1514
159	0x2caf	0.0732

arith.constant24 f2 [512]
0	0xaf17	-0.1108
1	0xb096	-0.1433
2	0x32e6	0.2156
3	0xadf1	-0.09283
4	0xad3c	-0.0818
5	0xa297	-0.01287
6	0xad99	-0.08746
7	0x29aa	0.04425
8	0x286d	0.03458
9	0xacb4	-0.0735
10	0x28da	0.0379
11	0xa3d8	-0.01532
12	0xaa53	-0.0494
13	0xafe5	-0.12335
14	0x2eca	0.1061
15	0xb0e1	-0.1525
16	0x2fa5	0.11945
17	0xabdf	-0.0615
18	0x292d	0.04044
19	0x2f10	0.11035
20	0x29fc	0.04675
21	0xb0d4	-0.1509
22	0xadac	-0.0886
23	0x9396	-0.000926
24	0x2845	0.03336
25	0xac8e	-0.07117
26	0x2c29	0.065
27	0xa7e5	-0.03084
28	0xa824	-0.03235
29	0x29a7	0.04416
30	0xb00f	-0.1268
31	0x2fac	0.1199
32	0xacb7	-0.07367
33	0x3007	0.1259
34	0x2396	0.01482
35	0x342b	0.2605
36	0x2c20	0.06445
37	0xa850	-0.0337
38	0xac32	-0.06555
39	0xa224	-0.01199
40	0xae67	-0.10004
41	0x2e7a	0.1012
42	0x8fa7	-0.000467
43	0xb0bd	-0.1481
44	0x2b62	0.05768
45	0xabff	-0.06247
46	0x237a	0.0146
47	0xacd7	-0.0756
48	0xb01f	-0.1288
49	0x2636	0.02426
50	0xaed6	-0.1068
51	0x2d4d	0.0828
52	0x244d	0.0168
53	0xa72c	-0.02802
54	0x1291	0.0008016
55	0x28c7	0.03732
56	0x2559	0.02089
57	0x2fe2	0.12317
58	0xaeb5	-0.1048
59	0x9c64	-0.004288
60	0xacaa	-0.0729
61	0xadb2	-0.089
62	0xa9d6	-0.0456
63	0xb12c	-0.1616
64	0x24a3	0.01811
65	0xac1f	-0.0644
66	0xb1cf	-0.1815
67	0xb070	-0.1387
68	0xa06d	-0.008644
69	0xabc7	-0.06076
70	0xa8d7	-0.0378
71	0xaaf9	-0.05447
72	0x1fd5	0.00765
73	0x2e18	0.0952
74	0xa507	-0.01964
75	0xac57	-0.0678
76	0x233b	0.01412
77	0xaefa	-0.109
78	0xac3f	-0.06635
79	0xade2	-0.0919
80	0xae34	-0.0969
81	0x344a	0.268
82	0x2950	0.0415
83	0xb00d	-0.1266
84	0x31ab	0.1771
85	0xb19c	-0.1753
86	0xad19	-0.07965
87	0x283e	0.03314
88	0x2c4a	0.067
89	0xae4e	-0.0985
90	0xa9e1	-0.04593
91	0xa9bb	-0.04477
92	0x261a	0.02383
93	0x2f99	0.1187
94	0xb06b	-0.1381
95	0x9a23	-0.002996
96	0xa91d	-0.03995
97	0xacd7	-0.0756
98	0x2ef0	0.1084
99	0x2898	0.0359
100	0x2aeb	0.05405
101	0x3268	0.2002
102	0x9c0d	-0.003956
103	0x9643	-0.001529
104	0x2a00	0.04688
105	0x263a	0.02432
106	0xb16d	-0.1696
107	0xaea4	-0.10376
108	0xac52	-0.0675
109	0xac1d	-0.0643
110	0x2d65	0.0843
111	0x1f71	0.007267
112	0xb110	-0.1582
113	0x2d71	0.085
114	0xaebf	-0.1054
115	0xa9db	-0.04575
116	0xa8fb	-0.0389
117	0x344c	0.2686
118	0xa908	-0.0393
119	0x2034	0.00821
120	0xa9c0	-0.04492
121	0xb043	-0.1332
122	0x1f34	0.007034
123	0x30dd	0.152
124	0xae4e	-0.0985
125	0xad5c	-0.08374
126	0xab2d	-0.05606
127	0x2da8	0.0884
128	0x3af7	0.8706
129	0x3a7a	0.8096
130	0x3999	0.6997
131	0x3bba	0.966
132	0x3b58	0.918
133	0x3a30	0.7734
134	0x39f8	0.746
135	0x3c71	1.11
136	0x3c36	1.053
137	0x3bca	0.9736
138	0x39ed	0.7407
139	0x3af3	0.8687
140	0x3a1b	0.763
141	0x3b33	0.9
142	0x3a37	0.777
143	0x3b75	0.932
144	0x3995	0.6978
145	0x3a5c	0.795
146	0x3a09	0.7544
147	0x3c3b	1.058
148	0x3c40	1.0625
149	0x3af9	0.8716
150	0x3a47	0.7847
151	0x3b28	0.8945
152	0x3b6c	0.9277
153	0x3a8a	0.8174
154	0x3a2f	0.773
155	0x39d3	0.728
156	0x3ab9	0.8403
157	0x3aa4	0.83
158	0x3c09	1.009
159	0x39f8	0.746
160	0x3a48	0.785
161	0x392c	0.6465
162	0x3b76	0.9326
163	0x39a5	0.7056
164	0x3ab4	0.838
165	0x3b94	0.9473
166	0x3a99	0.8247
167	0x3b74	0.9316
168	0x3a70	0.8047
169	0x3bc1	0.969
170	0x3c06	1.006
171	0x3bca	0.9736
172	0x39a6	0.706
173	0x39d6	0.7295
174	0x3a71	0.805
175	0x3b31	0.899
176	0x3aee	0.866
177	0x3c5b	1.089
178	0x3a8f	0.82
179	0x39e1	0.735
180	0x39a4	0.705
181	0x3a0a	0.755
182	0x3add	0.858
183	0x3a27	0.769
184	0x39ee	0.741
185	0x39d4	0.7285
186	0x3af5	0.8696
187	0x3c4b	1.073
188	0x3a06	0.753
189	0x3b4c	0.912
190	0x3a9b	0.8257
191	0x3a64	0.799
192	0x39bc	0.717
193	0x3a42	0.782
194	0x3af0	0.867
195	0x39eb	0.7397
196	0x3bd3	0.978
197	0x3ac9	0.848
198	0x39e4	0.7363
199	0x3bd1	0.977
200	0x3adf	0.859
201	0x395a	0.669
202	0x3c77	1.116
203	0x3a2a	0.7705
204	0x3997	0.6987
205	0x3a9e	0.827
206	0x3b2b	0.896
207	0x3a38	0.7773
208	0x3b35	0.901
209	0x3a00	0.75
210	0x3a7c	0.8105
211	0x39aa	0.708
212	0x3abc	0.842
213	0x3a8b	0.818
214	0x3ac7	0.847
215	0x3c8a	1.135
216	0x39b8	0.715
217	0x3ab5	0.8384
218	0x3a77	0.808
219	0x3baa	0.958
220	0x3a1a	0.7627
221	0x3b2d	0.897
222	0x3ab8	0.84
223	0x3bb3	0.9624
224	0x3a3b	0.779
225	0x3a28	0.7695
226	0x39b2	0.712
227	0x3998	0.699
228	0x3c14	1.02
229	0x3971	0.68
230	0x3bd0	0.9766
231	0x39c2	0.7197
232	0x397e	0.6865
233	0x39bc	0.717
234	0x3aef	0.8667
235	0x3bbb	0.9663
236	0x3a84	0.8145
237	0x3b91	0.946
238	0x3be2	0.9854
239	0x3a23	0.767
240	0x3b42	0.907
241	0x3c98	1.148
242	0x3b5b	0.9194
243	0x3b21	0.891
244	0x3a13	0.7593
245	0x39c7	0.722
246	0x3b54	0.916
247	0x3c02	1.002
248	0x39d0	0.7266
249	0x3a6e	0.8037
250	0x3953	0.6655
251	0x3c84	1.129
252	0x3b05	0.8774
253	0x3bcb	0.974
254	0x3beb	0.9897
255	0x399c	0.701

arith.constant25 f2 [512, 128]
0	0xae80	-0.10156
1	0xa9f4	-0.0465
2	0xa831	-0.03275
3	0x30b8	0.1475
4	0xacf1	-0.0772
5	0x28aa	0.03644
6	0xa691	-0.02565
7	0x2ac5	0.0529
8	0xacbb	-0.0739
9	0x2631	0.02419
10	0xac18	-0.06396
11	0xaf12	-0.1105
12	0xaf1d	-0.11115
13	0xac71	-0.0694
14	0x9971	-0.002657
15	0xb276	-0.2019
16	0x2e08	0.09424
17	0x29ef	0.04636
18	0x2c09	0.06305
19	0x2edb	0.1071
20	0x2ea6	0.1039
21	0x2009	0.00788
22	0x2807	0.03146
23	0xaf26	-0.1117
24	0xa235	-0.01212
25	0xac2e	-0.0653
26	0xadb9	-0.0894
27	0x2517	0.01988
28	0x2a73	0.05038
29	0x2c31	0.0655
30	0xb006	-0.1257
31	0xaedb	-0.1071
32	0x1d4c	0.005173
33	0x2a73	0.05038
34	0x3101	0.1564
35	0x3028	0.1299
36	0xa8e6	-0.03827
37	0x2e64	0.09985
38	0xb269	-0.2003
39	0x307d	0.1403
40	0x2806	0.03143
41	0x296e	0.04242
42	0xaa67	-0.05002
43	0x30ac	0.146
44	0x2c7f	0.07025
45	0x9406	-0.000982
46	0x26b1	0.02614
47	0x3017	0.1278
48	0x334a	0.2278
49	0x2d1b	0.0798
50	0xab77	-0.05832
51	0xa47b	-0.0175
52	0x23f7	0.01556
53	0x2e02	0.0939
54	0x2f2c	0.11206
55	0x31ab	0.1771
56	0x2ed9	0.107
57	0xa822	-0.0323
58	0x2ab7	0.05246
59	0xae7f	-0.1015
60	0xb02f	-0.1307
61	0x2c01	0.06256
62	0x2e7f	0.1015
63	0xaf74	-0.11646
64	0x2f86	0.11755
65	0xa819	-0.032
66	0x24b6	0.0184
67	0x24fe	0.0195
68	0x301b	0.1283
69	0x305f	0.1366
70	0x9c5f	-0.00427
71	0x306e	0.1384
72	0xa6cf	-0.0266
73	0xa83a	-0.03302
74	0xa135	-0.01017
75	0x283c	0.03308
76	0x3150	0.166
77	0xafee	-0.1239
78	0x2cc0	0.0742
79	0xacb1	-0.0733
80	0x2f52	0.1144
81	0xa8e3	-0.03818
82	0xa893	-0.03574
83	0xb058	-0.1357
84	0xaddb	-0.0915
85	0xa480	-0.01758
86	0x22ab	0.01302
87	0x2cb7	0.07367
88	0x2f29	0.1119
89	0xa708	-0.02747
90	0x2986	0.04315
91	0xb004	-0.1255
92	0xafb3	-0.1203
93	0xa84a	-0.0335
94	0xaef8	-0.1089
95	0x2b33	0.05624
96	0x242e	0.01633
97	0x2990	0.04346
98	0xaa86	-0.05096
99	0x2cb6	0.0736
100	0x2a3d	0.04874
101	0x2c1d	0.0643
102	0x26a4	0.02594
103	0x269e	0.02585
104	0xa405	-0.0157
105	0xacfa	-0.07776
106	0x2ff8	0.1245
107	0xac2e	-0.0653
108	0xacbd	-0.07404
109	0xab0b	-0.05502
110	0xad33	-0.08124
111	0xb17b	-0.1713
112	0xabf5	-0.06216
113	0x26ca	0.02652
114	0x2e98	0.103
115	0x2efc	0.10913
116	0xac17	-0.0639
117	0xab11	-0.0552
118	0xac86	-0.0707
119	0xaa62	-0.04987
120	0x2993	0.04355
121	0x27b7	0.03014
122	0xb10f	-0.1581
123	0x29a1	0.04398
124	0x3102	0.1565
125	0x2c27	0.0649
126	0xb113	-0.1586
127	0x239d	0.01487
128	0xaf73	-0.1164
129	0x2527	0.02013
130	0x9d61	-0.005253
131	0x31a6	0.1765
132	0xab60	-0.05762
133	0xa9b2	-0.0445
134	0xa01f	-0.00805
135	0x32aa	0.2083
136	0xb0f3	-0.1547
137	0x2b52	0.0572
138	0xacee	-0.077
139	0xadf0	-0.0928
140	0xae13	-0.0949
141	0xa793	-0.02959
142	0xacc0	-0.0742
143	0xad72	-0.0851
144	0x30e2	0.1526
145	0xa280	-0.012695
146	0xae1a	-0.09534
147	0x3056	0.1355
148	0x3017	0.1278
149	0x2856	0.03387
150	0x2c2f	0.06537
151	0xa07e	-0.00877
152	0x2e8c	0.1023
153	0xaa6e	-0.05023
154	0x2281	0.0127
155	0x2862	0.03424
156	0x992f	-0.002531
157	0xaee2	-0.10754
158	0xb014	-0.1274
159	0xb00c	-0.1265
160	0xa4a0	-0.01807
161	0x2961	0.04202
162	0x313e	0.1638
163	0x2895	0.0358
164	0x033c	4.935e-05
165	0x1b35	0.00352
166	0xb1c6	-0.1804
167	0x3165	0.1686
168	0x2ec1	0.1055
169	0x31ce	0.1814
170	0xb189	-0.173
171	0x307e	0.1404
172	0x2d92	0.08704
173	0xaeff	-0.1093
174	0xacce	-0.0751
175	0x292b	0.04037
176	0xa6d3	-0.02666
177	0x2ac9	0.053
178	0xb0a6	-0.1453
179	0xa8bc	-0.037
180	0x2458	0.01697
181	0xa220	-0.01196
182	0x2f90	0.11816
183	0xad3e	-0.0819
184	0xaaa4	-0.05188
185	0x300a	0.1262
186	0x3033	0.1312
187	0xab2b	-0.056
188	0x294f	0.04147
189	0x2869	0.03445
190	0x2c2b	0.0651
191	0xa910	-0.03955
192	0x2939	0.0408
193	0xaa1a	-0.04767
194	0xac84	-0.07056
195	0x2add	0.05362
196	0xa25e	-0.012436
197	0x2855	0.03384
198	0x2cb9	0.0738
199	0x311c	0.1597
200	0xa9be	-0.04486
201	0x2acf	0.0532
202	0xacd3	-0.0754
203	0xad05	-0.0784
204	0x29e3	0.046
205	0x2dce	0.0907
206	0xab07	-0.0549
207	0xae4c	-0.0984
208	0x3120	0.1602
209	0x28a9	0.0364
210	0xb215	-0.1901
211	0x2b38	0.0564
212	0xa88f	-0.0356
213	0xad9b	-0.0876
214	0x1c90	0.004456
215	0x1de6	0.00576
216	0x30a3	0.1449
217	0xa990	-0.04346
218	0x315e	0.1677
219	0x9d60	-0.00525
220	0xaaf4	-0.05432
221	0x2b66	0.0578
222	0xa9fa	-0.0467
223	0x2f37	0.11273
224	0x9003	-0.0004897
225	0xa7f3	-0.03105
226	0xa009	-0.00788
227	0xab4d	-0.05704
228	0x2f54	0.1145
229	0x2d9d	0.0877
230	0x3020	0.1289
231	0xacce	-0.0751
232	0x900c	-0.000494
233	0x295d	0.0419
234	0x30e1	0.1525
235	0xad2b	-0.08075
236	0xac49	-0.06696
237	0xae08	-0.09424
238	0xb08b	-0.142
239	0xafb2	-0.12024
240	0xaa1f	-0.04782
241	0x3335	0.2252
242	0x2fa7	0.11957
243	0x2773	0.0291
244	0xa9a3	-0.04404
245	0xa5f8	-0.02332
246	0xb25e	-0.199
247	0xadde	-0.0917
248	0x2d74	0.0852
249	0xb028	-0.1299
250	0x2815	0.0319
251	0x3316	0.2214
252	0x2fc2	0.1212
253	0x30cd	0.15
254	0xacf7	-0.0776
255	0x2b12	0.05524

arith.constant26 f2 [512, 14]
0	0x2d98	0.0874
1	0xad68	-0.0845
2	0xa59a	-0.02188
3	0x29ff	0.04684
4	0x2914	0.03967
5	0x27f9	0.03114
6	0x2e2c	0.09644
7	0xaaf0	-0.0542
8	0xabab	-0.0599
9	0xb0ed	-0.1539
10	0x241f	0.0161
11	0x2371	0.014534
12	0x2b53	0.05722
13	0x2f82	0.1173
14	0xb127	-0.161
15	0x2ac8	0.05298
16	0x2dfb	0.09344
17	0xad1a	-0.0797
18	0xb123	-0.1605
19	0xb2d1	-0.213
20	0xa471	-0.01735
21	0x2c24	0.0647
22	0x293c	0.0409
23	0x2baa	0.05988
24	0x3011	0.1271
25	0xa730	-0.02808
26	0x2815	0.0319
27	0xa544	-0.02057
28	0x36fb	0.4363
29	0x2ae7	0.05392
30	0x2ccd	0.075
31	0x3095	0.1432
32	0x3840	0.5312
33	0x3ed8	1.711
34	0x34fd	0.3118
35	0x3578	0.3418
36	0x32ab	0.2084
37	0xabc9	-0.06082
38	0x33f5	0.2487
39	0x2f63	0.1154
40	0xad54	-0.08325
41	0x3675	0.4036
42	0xb107	-0.1571
43	0xb407	-0.2517
44	0x2aee	0.05414
45	0xaee1	-0.1075
46	0xace5	-0.0765
47	0xaf9b	-0.11884
48	0xac23	-0.06464
49	0x2784	0.02936
50	0x2f32	0.1124
51	0x9865	-0.002146
52	0xb2a0	-0.207
53	0x30a6	0.1453
54	0xa557	-0.02086
55	0xabff	-0.06247
56	0xa2cc	-0.013275
57	0xa549	-0.02065
58	0xa4cb	-0.01872
59	0x26ea	0.02701
60	0xa0e5	-0.00956
61	0xaeba	-0.1051
62	0xac0b	-0.0632
63	0xad06	-0.0785
64	0xa834	-0.03284
65	0x1d1a	0.004982
66	0x2902	0.03912
67	0x2c70	0.06934
68	0xa962	-0.04205
69	0x2981	0.043
70	0x350d	0.3157
71	0xaf5f	-0.1152
72	0x3513	0.3171
73	0x33cb	0.2435
74	0x35b1	0.3557
75	0xb44a	-0.268
76	0x3577	0.3416
77	0x34ad	0.2922
78	0x342f	0.2615
79	0x32de	0.2146
80	0xa72c	-0.02802
81	0x3443	0.2664
82	0xaddb	-0.0915
83	0x358e	0.3472
84	0xb06a	-0.138
85	0x2bca	0.06085
86	0xabc6	-0.06073
87	0xb161	-0.1681
88	0xb163	-0.1683
89	0xb62b	-0.3855
90	0xac8c	-0.07104
91	0xb170	-0.1699
92	0x2475	0.01741
93	0x2e92	0.10266
94	0x2ed7	0.1069
95	0x2799	0.02968
96	0x2d0c	0.07886
97	0xb10f	-0.1581
98	0xb0ff	-0.1561
99	0xacc8	-0.0747
100	0x2e46	0.098
101	0xaeb9	-0.10504
102	0x2050	0.00842
103	0xacc4	-0.07446
104	0xaea0	-0.1035
105	0xb0e8	-0.1533
106	0x2369	0.01447
107	0xabbe	-0.0605
108	0x2f88	0.1177
109	0x2292	0.01283
110	0xab09	-0.05496
111	0x2366	0.01445
112	0x309e	0.1443
113	0xaa0a	-0.04718
114	0xaf0e	-0.1102
115	0x331d	0.2223
116	0x325e	0.199
117	0x360e	0.3784
118	0x335f	0.2303
119	0x3321	0.2228
120	0xb01e	-0.1287
121	0x296b	0.04233
122	0x321f	0.1913
123	0x1d81	0.005375
124	0xaded	-0.0926
125	0x3360	0.2305
126	0xab9c	-0.05945
127	0x256a	0.02115
128	0x9e32	-0.00605
129	0xa631	-0.02419
130	0xb229	-0.1925
131	0xac84	-0.07056
132	0xaba4	-0.0597
133	0xa9e2	-0.04596
134	0x188e	0.002224
135	0xafe5	-0.12335
136	0x2218	0.0119
137	0xae69	-0.10016
138	0xa9ff	-0.04684
139	0xb2b5	-0.2096
140	0x273b	0.02824
141	0xb156	-0.1667
142	0x2207	0.01177
143	0x2ecd	0.10626
144	0xb055	-0.1354
145	0xaca6	-0.07263
146	0x1efc	0.00682
147	0xae7a	-0.1012
148	0xa07d	-0.008766
149	0x2e74	0.1008
150	0xb1ad	-0.1774
151	0x2ce9	0.0767
152	0x2acd	0.05313
153	0x2660	0.0249
154	0x2960	0.042
155	0x28d2	0.03766
156	0x3025	0.1295
157	0xa779	-0.02919
158	0xac79	-0.0699
159	0xb43b	-0.2644
160	0x2c19	0.064
161	0xa7cd	-0.03047
162	0x2add	0.05362
163	0x325e	0.199
164	0xb026	-0.1296
165	0x3019	0.128
166	0x31e3	0.184
167	0x2f22	0.11145
168	0xa5ef	-0.02318
169	0x2b3d	0.05655
170	0x26c3	0.02641
171	0x3505	0.3137
172	0xaa26	-0.04803
173	0x29ef	0.04636
174	0xa8f6	-0.03876
175	0x1c50	0.00421
176	0x2a21	0.04788
177	0xb061	-0.1368
178	0x9843	-0.00208
179	0xb217	-0.1903
180	0x2751	0.02858
181	0x28d6	0.03778
182	0xa856	-0.03387
183	0x28a9	0.0364
184	0xb047	-0.1337
185	0xa36e	-0.01451
186	0xaf21	-0.1114
187	0xad8a	-0.08655
188	0x263a	0.02432
189	0x203d	0.00828
190	0xaa3c	-0.0487
191	0x2e24	0.09595
192	0xa652	-0.02469
193	0x2ef2	0.1085
194	0x28a9	0.0364
195	0xaffd	-0.1248
196	0x9c10	-0.003967
197	0xb3bf	-0.2421
198	0xb248	-0.1963
199	0xaff2	-0.12415
200	0xa2f7	-0.0136
201	0xa1be	-0.011215
202	0x2150	0.010376
203	0xad2d	-0.0809
204	0xb05b	-0.1361
205	0x3091	0.1427
206	0x3033	0.1312
207	0x2d6a	0.0846
208	0x2fd3	0.12225
209	0xac88	-0.0708
210	0xa171	-0.01063
211	0xab8d	-0.059
212	0xaab0	-0.05225
213	0xb0e1	-0.1525
214	0xa1f8	-0.01166
215	0x2846	0.0334
216	0x2e0f	0.09467
217	0x2414	0.01593
218	0x215a	0.01045
219	0xa986	-0.04315
220	0xab4f	-0.0571
221	0xad6d	-0.0848
222	0xb110	-0.1582
223	0xac2f	-0.06537
224	0x3a25	0.768
225	0xad07	-0.07855
226	0x350f	0.3162
227	0x3442	0.266
228	0x3a84	0.8145
229	0x3869	0.5513
230	0x3af3	0.8687
231	0x3979	0.684
232	0x33db	0.2455
233	0xb13a	-0.1633
234	0x2d91	0.087
235	0x3001	0.1251
236	0xa4d4	-0.01886
237	0x39bc	0.717
238	0xa44f	-0.01683
239	0x220d	0.01182
240	0x298f	0.04343
241	0x30ae	0.1462
242	0xae7a	-0.1012
243	0xad8a	-0.08655
244	0xac35	-0.06573
245	0x2695	0.02571
246	0x2d77	0.0854
247	0xabaf	-0.06003
248	0x2a0f	0.04733
249	0x288a	0.03546
250	0x2b1f	0.05563
251	0x2c5f	0.0683
252	0xa9fb	-0.04672
253	0x3025	0.1295
254	0xaa12	-0.04742
255	0x2d71	0.085

arith.constant29 f2 [256]
0	0xae13	-0.0949
1	0xa51e	-0.01999
2	0x2bc5	0.0607
3	0xa6fd	-0.0273
4	0xa9d4	-0.04553
5	0x0716	0.0001081
6	0xa991	-0.0435
7	0xac3e	-0.0663
8	0xa516	-0.01987
9	0xac20	-0.06445
10	0xad47	-0.08246
11	0xaccf	-0.07513
12	0x20de	0.00951
13	0xae43	-0.09784
14	0x2832	0.03278
15	0xae1d	-0.0955
16	0xa9c5	-0.04507
17	0x2911	0.03958
18	0x2b4e	0.05707
19	0x9e81	-0.00635
20	0xac4d	-0.0672
21	0x2c87	0.07074
22	0x2c3a	0.06604
23	0xab50	-0.05713
24	0x9dfe	-0.00585
25	0xa5c6	-0.02255
26	0xa421	-0.01613
27	0xa563	-0.02104
28	0xac38	-0.0659
29	0xa730	-0.02808
30	0xabad	-0.05997
31	0xa44c	-0.01678
32	0xacdc	-0.0759
33	0xad2a	-0.0807
34	0xa8ba	-0.03693
35	0x2413	0.01591
36	0x1e8f	0.006405
37	0xa5a7	-0.02208
38	0xa938	-0.04077
39	0xac34	-0.0657
40	0x250f	0.01976
41	0xa15b	-0.01046
42	0xa45c	-0.01703
43	0xac6e	-0.0692
44	0x2a0b	0.0472
45	0xa8ab	-0.03647
46	0xa79e	-0.02975
47	0xae56	-0.099
48	0xad02	-0.07825
49	0xa0cf	-0.00939
50	0xa155	-0.010414
51	0xacc3	-0.0744
52	0x284a	0.0335
53	0x2f04	0.1096
54	0xac38	-0.0659
55	0x2056	0.00847
56	0xac1c	-0.0642
57	0xa88b	-0.0355
58	0x1f37	0.007046
59	0x26a8	0.026
60	0xa901	-0.0391
61	0xa80c	-0.03162
62	0xab8e	-0.05902
63	0xac23	-0.06464
64	0x3abf	0.8433
65	0x3a4a	0.786
66	0x3c38	1.055
67	0x3bc9	0.973
68	0x3ad9	0.856
69	0x3a29	0.77
70	0x3a65	0.7993
71	0x3a63	0.7983
72	0x3b00	0.875
73	0x3a68	0.801
74	0x39fd	0.7485
75	0x3b57	0.9175
76	0x39c7	0.722
77	0x3b64	0.924
78	0x39f0	0.742
79	0x3b72	0.9307
80	0x3adc	0.8574
81	0x3c1d	1.028
82	0x3c09	1.009
83	0x3b5b	0.9194
84	0x39e6	0.7373
85	0x3c55	1.083
86	0x3c3e	1.061
87	0x3b4f	0.9136
88	0x3aa5	0.8306
89	0x3b6d	0.928
90	0x3ac5	0.846
91	0x39af	0.7104
92	0x39cc	0.7246
93	0x3b81	0.938
94	0x3b22	0.8916
95	0x3a29	0.77
96	0x3a24	0.7676
97	0x3ae2	0.8604
98	0x3afb	0.8726
99	0x3a09	0.7544
100	0x3b63	0.9233
101	0x3ba8	0.957
102	0x3b97	0.9487
103	0x3a78	0.8086
104	0x3958	0.668
105	0x3a8e	0.8193
106	0x3ac5	0.846
107	0x3ae1	0.86
108	0x3aeb	0.8647
109	0x3b43	0.9077
110	0x3b2d	0.897
111	0x3aa0	0.828
112	0x3bbb	0.9663
113	0x39e4	0.7363
114	0x3b3e	0.9053
115	0x3a28	0.7695
116	0x3a02	0.751
117	0x3c2e	1.045
118	0x3b1a	0.8877
119	0x39be	0.718
120	0x3b2b	0.896
121	0x3b7f	0.937
122	0x3a45	0.7837
123	0x3af1	0.8677
124	0x3b65	0.9243
125	0x3b38	0.9023
126	0x3aab	0.8335
127	0x3b0d	0.8813
128	0x2691	0.02565
129	0xa4e1	-0.01906
130	0xaa9b	-0.0516
131	0x9a1d	-0.002985
132	0xa75d	-0.02876
133	0xa0b9	-0.009224
134	0x9816	-0.001995
135	0x28b9	0.0369
136	0xa7ce	-0.03049
137	0x91f9	-0.000729
138	0xa576	-0.02133
139	0x235d	0.01438
140	0x2200	0.01172
141	0x23f8	0.015564
142	0x2af1	0.05423
143	0x1df8	0.00583
144	0x22a3	0.01296
145	0xa5a4	-0.02203
146	0xaa23	-0.04794
147	0x2757	0.02867
148	0x2436	0.01645
149	0xa924	-0.04016
150	0x27ed	0.03096
151	0x205f	0.00854
152	0xa67e	-0.02536
153	0xa711	-0.0276
154	0xa095	-0.00895
155	0x241e	0.01608
156	0x23c4	0.01517
157	0x2688	0.02551
158	0x9735	-0.00176
159	0x264e	0.02463
160	0x2853	0.03378
161	0x2ad1	0.05325
162	0x2505	0.0196
163	0x1c61	0.004276
164	0x255d	0.02095
165	0x1826	0.002026
166	0x249c	0.018
167	0x2972	0.04254
168	0x250d	0.01973
169	0x16c6	0.001654
170	0xa6cf	-0.0266
171	0xacce	-0.0751
172	0xa3b3	-0.01504
173	0x1b56	0.003582
174	0x28e9	0.03836
175	0xa190	-0.010864
176	0x257b	0.02141
177	0x242c	0.0163
178	0xa84f	-0.03366
179	0xac65	-0.06866
180	0xa044	-0.00833
181	0xac0e	-0.06335
182	0x1038	0.000515
183	0x24f7	0.0194
184	0x18ad	0.002283
185	0xa945	-0.04117
186	0x29a9	0.04422
187	0x2a4d	0.04922
188	0xa155	-0.010414
189	0xa8ad	-0.03653
190	0xa96b	-0.04233
191	0xa01f	-0.00805
192	0xad68	-0.0845
193	0xa906	-0.03925
194	0xabeb	-0.06186
195	0xaf39	-0.11285
196	0xad69	-0.08453
197	0xa3ec	-0.01547
198	0xad15	-0.0794
199	0xad5e	-0.08386
200	0xabad	-0.05997
201	0xafa8	-0.1196
202	0xabc9	-0.06082
203	0xaf4f	-0.1142
204	0x2924	0.04016
205	0xada3	-0.0881
206	0xa761	-0.02882
207	0xae18	-0.0952
208	0xac89	-0.07086
209	0xb3a6	-0.239
210	0xa999	-0.04373
211	0xad97	-0.08734
212	0xacc2	-0.07434
213	0xaa83	-0.05087
214	0xac5e	-0.06824
215	0xb121	-0.1603
216	0xad4c	-0.08276
217	0xaf79	-0.11676
218	0xac31	-0.0655
219	0xa094	-0.00894
220	0xac9b	-0.07196
221	0xb00c	-0.1265
222	0xae98	-0.103
223	0xa4b7	-0.01842
224	0xb08a	-0.1418
225	0xaf5b	-0.1149
226	0xafb6	-0.1205
227	0xa77b	-0.02922
228	0xb061	-0.1368
229	0xb041	-0.1329
230	0xb151	-0.1661
231	0xa8b3	-0.0367
232	0x2082	0.008804
233	0xadfa	-0.0934
234	0xabf6	-0.0622
235	0xae46	-0.098
236	0xb054	-0.1353
237	0xad59	-0.08356
238	0xad42	-0.08215
239	0xa989	-0.04324
240	0xadc2	-0.08997
241	0xab2c	-0.05603
242	0xae7a	-0.1012
243	0xaec3	-0.10565
244	0x2b38	0.0564
245	0xb590	-0.3477
246	0xb0cb	-0.1498
247	0xa2b8	-0.01312
248	0xadd4	-0.09106
249	0xad41	-0.0821
250	0xa1a2	-0.011
251	0xa5c1	-0.02248
252	0xb012	-0.1272
253	0xac4a	-0.067
254	0xaec8	-0.10596
255	0xb19d	-0.1754

arith.constant30 f2 [256, 64]
0	0xa7e1	-0.03078
1	0x1e34	0.006058
2	0x2d45	0.08234
3	0xa721	-0.02785
4	0x2ad6	0.0534
5	0x24f2	0.01932
6	0xa37e	-0.01463
7	0xaf0a	-0.11
8	0xa86d	-0.03458
9	0x2143	0.01028
10	0x9c90	-0.004456
11	0x2c02	0.0626
12	0x260a	0.02359
13	0xa6ee	-0.02707
14	0xac9a	-0.0719
15	0x30a0	0.1445
16	0xae42	-0.0978
17	0xa519	-0.01991
18	0x2d8d	0.08673
19	0xaa20	-0.04785
20	0xad1c	-0.07983
21	0xa381	-0.014656
22	0x18ce	0.002346
23	0x28bc	0.037
24	0xae0f	-0.09467
25	0xb094	-0.1431
26	0x2f35	0.1126
27	0xa77b	-0.02922
28	0xaac8	-0.05298
29	0xa91b	-0.0399
30	0x2bc4	0.06067
31	0x9c49	-0.004185
32	0x30cc	0.1499
33	0x1d45	0.005146
34	0x2d46	0.0824
35	0x26ff	0.02733
36	0x2cde	0.07605
37	0x3257	0.1981
38	0x165b	0.001552
39	0x2e3b	0.09735
40	0xaa73	-0.05038
41	0x30ec	0.1538
42	0x2e06	0.0941
43	0xae93	-0.1027
44	0xa79d	-0.02974
45	0xb0a2	-0.1448
46	0x25da	0.02286
47	0xad06	-0.0785
48	0x1ef7	0.0068
49	0x0c0b	0.0002468
50	0x2435	0.01643
51	0xad37	-0.0815
52	0x2d9d	0.0877
53	0xb0b6	-0.1472
54	0xb031	-0.131
55	0xaeac	-0.10425
56	0xa01a	-0.00801
57	0x27d8	0.03064
58	0xabc5	-0.0607
59	0x2e6a	0.1002
60	0xa308	-0.01373
61	0xa033	-0.0082
62	0x2ba4	0.0597
63	0xa823	-0.03232
64	0x2a61	0.04984
65	0x3091	0.1427
66	0xadbd	-0.08966
67	0x3111	0.1583
68	0x2c12	0.0636
69	0xb19d	-0.1754
70	0x2cd9	0.07574
71	0x28b4	0.03674
72	0xb141	-0.1642
73	0xb0b5	-0.1471
74	0x21b5	0.01115
75	0xa59b	-0.0219
76	0x305f	0.1366
77	0x2111	0.009895
78	0x2aa2	0.05182
79	0xb098	-0.1436
80	0x2a78	0.05054
81	0xa464	-0.01715
82	0xa8a3	-0.03622
83	0x297e	0.0429
84	0x24c9	0.01869
85	0x29fc	0.04675
86	0x23b8	0.015076
87	0x23b6	0.01506
88	0xa824	-0.03235
89	0xa68c	-0.02557
90	0xaf38	-0.1128
91	0xa75f	-0.0288
92	0xa867	-0.0344
93	0x3123	0.1605
94	0xac69	-0.0689
95	0xa145	-0.01029
96	0xa559	-0.02089
97	0xa872	-0.03473
98	0xa610	-0.02368
99	0xacb8	-0.0737
100	0x2ded	0.0926
101	0x308e	0.1423
102	0x2a74	0.0504
103	0x2a26	0.04803
104	0xa7be	-0.03024
105	0xa8c6	-0.0373
106	0xb121	-0.1603
107	0xa90c	-0.03943
108	0xa088	-0.00885
109	0x29b8	0.04468
110	0xac92	-0.0714
111	0xa95b	-0.04184
112	0xa8a9	-0.0364
113	0xb03b	-0.1322
114	0xad9c	-0.08765
115	0x2837	0.03293
116	0xa6e1	-0.02687
117	0x9dc1	-0.00562
118	0x2ec8	0.10596
119	0xae63	-0.0998
120	0x26aa	0.02603
121	0xb050	-0.1348
122	0x2bbb	0.0604
123	0x245f	0.01707
124	0xafeb	-0.1237
125	0x2992	0.04352
126	0x2554	0.02081
127	0x98fd	-0.002436
128	0xa312	-0.01381
129	0x22ac	0.01303
130	0x278e	0.02951
131	0xa82c	-0.0326
132	0xad1d	-0.0799
133	0x2741	0.02834
134	0x27f1	0.03102
135	0x2e3e	0.09753
136	0xa89b	-0.03598
137	0xae1f	-0.09564
138	0xae43	-0.09784
139	0x24e0	0.01904
140	0x28ee	0.0385
141	0xa87b	-0.035
142	0x28df	0.03806
143	0xaa26	-0.04803
144	0x283e	0.03314
145	0xae86	-0.1019
146	0x2d72	0.0851
147	0x300c	0.1265
148	0xac28	-0.06494
149	0x9fb3	-0.00752
150	0x2f8c	0.1179
151	0x28ff	0.03903
152	0x2e80	0.10156
153	0xa380	-0.01465
154	0xa6bf	-0.02635
155	0xae40	-0.09766
156	0xa864	-0.0343
157	0x2fcc	0.1218
158	0x2f60	0.11523
159	0xad7b	-0.08563
160	0xb0af	-0.1464
161	0xac83	-0.0705
162	0xa60a	-0.02359
163	0xab0f	-0.05515
164	0x2f08	0.10986
165	0x1a1f	0.002989
166	0x278d	0.0295
167	0x2000	0.007812
168	0x2de0	0.0918
169	0xa870	-0.03467
170	0x9989	-0.002703
171	0x27f2	0.03104
172	0xb059	-0.1359
173	0x2bc9	0.06082
174	0x2d47	0.08246
175	0x2c25	0.06476
176	0xa7d1	-0.03053
177	0x2b73	0.0582
178	0xadd3	-0.091
179	0xabd8	-0.06128
180	0xa526	-0.02011
181	0xaa3a	-0.04865
182	0x2d04	0.07837
183	0x2041	0.00831
184	0xa59f	-0.02196
185	0xacce	-0.0751
186	0x9e67	-0.006252
187	0x2ef8	0.1089
188	0xa824	-0.03235
189	0x16f5	0.0016985
190	0xa262	-0.01247
191	0x2dc2	0.08997
192	0x314e	0.1658
193	0x29b4	0.04456
194	0xaa56	-0.0495
195	0x2dec	0.0925
196	0x2d42	0.08215
197	0xac82	-0.07043
198	0x2cde	0.07605
199	0x2c72	0.06946
200	0xacac	-0.073
201	0xb105	-0.1569
202	0x2ac7	0.05295
203	0x30d0	0.1504
204	0xaf1e	-0.1112
205	0xa5bd	-0.02242
206	0x27ed	0.03096
207	0xa8bc	-0.037
208	0x2cc5	0.0745
209	0x2900	0.03906
210	0xa97f	-0.04294
211	0xb129	-0.1613
212	0x2cb0	0.07324
213	0xa605	-0.02351
214	0x2cdf	0.0761
215	0x29f2	0.04645
216	0xad99	-0.08746
217	0xa39c	-0.01486
218	0x2c39	0.066
219	0x3199	0.1749
220	0xaabe	-0.05267
221	0xaca4	-0.0725
222	0xa862	-0.03424
223	0x302f	0.1307
224	0xa504	-0.01959
225	0x22e0	0.01343
226	0x2b2c	0.05603
227	0x2e1c	0.09546
228	0xaedd	-0.10724
229	0xb07b	-0.14
230	0x248b	0.01775
231	0x26ca	0.02652
232	0x2fe7	0.1235
233	0x2e42	0.0978
234	0xaf37	-0.11273
235	0xb011	-0.1271
236	0xa444	-0.01666
237	0xa89a	-0.03595
238	0xb1ba	-0.179
239	0x2b1f	0.05563
240	0xaaaa	-0.05206
241	0xaeec	-0.10815
242	0x2715	0.02766
243	0x2f97	0.1186
244	0xacac	-0.073
245	0xa1ab	-0.01107
246	0x2349	0.01423
247	0xb14d	-0.1656
248	0xa48b	-0.01775
249	0x2cb3	0.0734
250	0xa787	-0.0294
251	0x2ecc	0.1062
252	0x9f82	-0.00733
253	0x2f89	0.11774
254	0x2e6a	0.1002
255	0x25d3	0.02275

arith.constant31 f2 [256, 128]
0	0xb56c	-0.3389
1	0xaeff	-0.1093
2	0xb29b	-0.2064
3	0xa070	-0.00867
4	0xb284	-0.2036
5	0xa7e0	-0.03076
6	0xb6e8	-0.4316
7	0xab0c	-0.05505
8	0xb10b	-0.1576
9	0x2d33	0.08124
10	0xb5f7	-0.3728
11	0xaeea	-0.10803
12	0xb323	-0.223
13	0xac23	-0.06464
14	0xb98f	-0.695
15	0x3164	0.1685
16	0x3496	0.2866
17	0xb713	-0.4421
18	0xb4c2	-0.2974
19	0xa9b4	-0.04456
20	0x29c0	0.04492
21	0xaae9	-0.054
22	0x3038	0.1318
23	0x34b7	0.2947
24	0xaf5e	-0.1151
25	0xb1c3	-0.18
26	0x389b	0.5757
27	0xb689	-0.4084
28	0xb2b3	-0.2094
29	0x3265	0.1998
30	0xae11	-0.0948
31	0xb8ea	-0.6143
32	0xb102	-0.1565
33	0x376e	0.4644
34	0x344b	0.2683
35	0xb05d	-0.1364
36	0x34a7	0.2908
37	0xb2d7	-0.2137
38	0xb550	-0.332
39	0xaa2b	-0.0482
40	0x3126	0.1609
41	0x3885	0.565
42	0xb566	-0.3374
43	0x2b5c	0.0575
44	0x347a	0.2798
45	0xabf5	-0.06216
46	0xb1ab	-0.1771
47	0xb077	-0.1395
48	0x2fa3	0.1193
49	0xa9db	-0.04575
50	0x2ff2	0.12415
51	0xb7af	-0.4802
52	0x349f	0.2888
53	0xae14	-0.095
54	0x35bc	0.3584
55	0x3645	0.3918
56	0xb7d4	-0.4893
57	0xb10a	-0.1575
58	0x2ab2	0.0523
59	0xa618	-0.0238
60	0xaae7	-0.05392
61	0xb307	-0.2196
62	0xb07f	-0.1405
63	0xaead	-0.1043
64	0x348f	0.285
65	0xb42f	-0.2615
66	0xab39	-0.05643
67	0x34fb	0.3113
68	0xb60a	-0.3774
69	0x3442	0.266
70	0xb427	-0.2595
71	0x2d3a	0.08167
72	0x2fde	0.1229
73	0x3960	0.672
74	0x8bdd	-0.00024
75	0xb633	-0.3875
76	0x38d3	0.603
77	0x3399	0.2374
78	0xa73a	-0.02823
79	0xae74	-0.1008
80	0x32d8	0.2139
81	0x384d	0.5376
82	0xb89b	-0.5757
83	0x382d	0.522
84	0x3368	0.2314
85	0xafbb	-0.1208
86	0xa825	-0.03238
87	0x2c9f	0.0722
88	0x39cc	0.7246
89	0x20ca	0.00935
90	0x3567	0.3376
91	0x2ac0	0.05273
92	0xb965	-0.6743
93	0xb63c	-0.3896
94	0x2847	0.03342
95	0xaf3a	-0.1129
96	0x34a4	0.29
97	0xb608	-0.377
98	0xb873	-0.556
99	0xb7ec	-0.495
100	0x34fe	0.312
101	0x2d1f	0.08
102	0x2f5b	0.1149
103	0xa72c	-0.02802
104	0x327e	0.2029
105	0xb25f	-0.1991
106	0x2cc9	0.07477
107	0xa61f	-0.02391
108	0xb415	-0.2551
109	0xa6c2	-0.0264
110	0xb84d	-0.5376
111	0x32fd	0.2184
112	0x2717	0.0277
113	0x2a80	0.05078
114	0x32e1	0.215
115	0xb015	-0.1276
116	0x32a5	0.2076
117	0x30ab	0.1459
118	0x280b	0.0316
119	0xb465	-0.2747
120	0x36db	0.4285
121	0xb620	-0.3828
122	0x3137	0.163
123	0x3214	0.19
124	0x9ff5	-0.00777
125	0x2c87	0.07074
126	0x2884	0.03528
127	0xb822	-0.5166
128	0x9c40	-0.00415
129	0x2c44	0.06665
130	0x2aca	0.05304
131	0xae95	-0.10284
132	0xb1d1	-0.1818
133	0xb4f0	-0.3086
134	0x2824	0.03235
135	0xab71	-0.05814
136	0x2da5	0.0882
137	0x3059	0.1359
138	0xa37d	-0.014626
139	0x2d87	0.08636
140	0xaa6f	-0.05026
141	0xab80	-0.0586
142	0xacd5	-0.0755
143	0x2eb3	0.1047
144	0xb03f	-0.1327
145	0xac8c	-0.07104
146	0xab54	-0.05725
147	0xaf9f	-0.1191
148	0xadf4	-0.093
149	0x1c38	0.00412
150	0xb565	-0.3372
151	0x2f76	0.1166
152	0x9ebc	-0.006577
153	0xad86	-0.0863
154	0xb5b4	-0.3564
155	0xaa0f	-0.04733
156	0xa853	-0.03378
157	0xa921	-0.04007
158	0x30f4	0.1548
159	0x3476	0.2788
160	0x2d01	0.0782
161	0xb2c7	-0.2118
162	0x2d6d	0.0848
163	0xa8ed	-0.03848
164	0xb171	-0.17
165	0xaaaf	-0.05222
166	0xa93c	-0.0409
167	0xadd8	-0.0913
168	0xb33a	-0.2258
169	0x31cd	0.1813
170	0x2d63	0.08417
171	0xa3f8	-0.015564
172	0xa401	-0.01564
173	0xa89f	-0.0361
174	0x349e	0.2886
175	0x299c	0.04382
176	0x316d	0.1696
177	0xa90f	-0.03952
178	0x2e24	0.09595
179	0xb3b6	-0.241
180	0x2983	0.04306
181	0x3859	0.5435
182	0x2f1c	0.1111
183	0x360c	0.378
184	0xb09d	-0.1442
185	0x1ce0	0.00476
186	0xae3c	-0.0974
187	0x302c	0.1304
188	0x3173	0.1703
189	0x2ba5	0.05972
190	0x3316	0.2214
191	0xa926	-0.04022
192	0x3116	0.1589
193	0x2cc0	0.0742
194	0xa5a2	-0.022
195	0x275b	0.02873
196	0x2fd0	0.1221
197	0x3292	0.2053
198	0xb4eb	-0.3074
199	0xad0f	-0.07904
200	0x243b	0.01653
201	0xa437	-0.01646
202	0x2a51	0.04935
203	0xb23a	-0.1946
204	0xa8fe	-0.039
205	0x33ea	0.2473
206	0x22f5	0.01359
207	0x296a	0.0423
208	0x346f	0.277
209	0x32ae	0.2087
210	0xb09e	-0.1443
211	0x3301	0.2189
212	0x2d44	0.0823
213	0x2ba8	0.0598
214	0x1fb5	0.007526
215	0x32ab	0.2084
216	0x2d4a	0.08264
217	0x2904	0.03918
218	0x3125	0.1608
219	0xa535	-0.02034
220	0xae05	-0.09406
221	0xb143	-0.1644
222	0x27b0	0.03003
223	0x290e	0.0395
224	0x32c6	0.2117
225	0xa9ea	-0.0462
226	0x2d52	0.0831
227	0x293a	0.04083
228	0x2b36	0.05634
229	0x1ee2	0.00672
230	0xa40e	-0.01584
231	0x2715	0.02766
232	0x28f4	0.0387
233	0xb5a2	-0.352
234	0x2ebb	0.10516
235	0x2f2a	0.11194
236	0xb010	-0.127
237	0xae2d	-0.0965
238	0xb3fe	-0.2498
239	0x2994	0.04358
240	0x2fbb	0.1208
241	0xad68	-0.0845
242	0x1c10	0.003967
243	0xa857	-0.0339
244	0x2f2c	0.11206
245	0x3074	0.1392
246	0x2d06	0.0785
247	0x2a1c	0.04773
248	0x2dee	0.09265
249	0x2e01	0.0938
250	0xb006	-0.1257
251	0x2d5a	0.0836
252	0xacb3	-0.0734
253	0x3048	0.1338
254	0xab0d	-0.05508
255	0xb24e	-0.197

arith.constant35 f2 [128]
0	0x1cbf	0.004635
1	0x2619	0.02382
2	0x3243	0.1957
3	0x28b9	0.0369
4	0x245e	0.01706
5	0xab1b	-0.0555
6	0x9e36	-0.006065
7	0x2b25	0.05582
8	0x2f9c	0.1189
9	0x2c2a	0.06506
10	0x26a4	0.02594
11	0x2691	0.02565
12	0x2c6a	0.069
13	0x27e3	0.0308
14	0x270c	0.02753
15	0x2dc1	0.0899
16	0x33b9	0.2413
17	0xa68e	-0.0256
18	0x2d3b	0.0817
19	0x1da8	0.005524
20	0xadca	-0.09045
21	0x2486	0.01767
22	0x3170	0.1699
23	0xac64	-0.0686
24	0x2685	0.02547
25	0xa0be	-0.00926
26	0x3203	0.1879
27	0x24e6	0.01913
28	0xa8d8	-0.03784
29	0x343b	0.2644
30	0x3069	0.1378
31	0x284a	0.0335
32	0x39ab	0.7085
33	0x3917	0.636
34	0x38aa	0.583
35	0x38b9	0.5903
36	0x39f3	0.7437
37	0x39a5	0.7056
38	0x3a0b	0.7554
39	0x396f	0.679
40	0x391d	0.639
41	0x3931	0.649
42	0x398a	0.6924
43	0x38de	0.6084
44	0x38ea	0.6143
45	0x38e3	0.611
46	0x38cb	0.599
47	0x3949	0.6606
48	0x376c	0.4639
49	0x3a78	0.8086
50	0x38f8	0.621
51	0x39bc	0.717
52	0x3a78	0.8086
53	0x39c9	0.723
54	0x3928	0.6445
55	0x3b3c	0.9043
56	0x38c8	0.5977
57	0x39a0	0.703
58	0x38bf	0.5933
59	0x38e1	0.61
60	0x39ac	0.709
61	0x3859	0.5435
62	0x386c	0.5527
63	0x3952	0.665
64	0xaaa2	-0.05182
65	0xa107	-0.00982
66	0xa8b3	-0.0367
67	0x2697	0.02574
68	0x2abc	0.0526
69	0x2722	0.02786
70	0x2834	0.03284
71	0xa6ab	-0.02605
72	0x2be1	0.06155
73	0x2dbb	0.08954
74	0x9b4f	-0.003569
75	0x2b57	0.05734
76	0x1303	0.000856
77	0x207a	0.00874
78	0xa925	-0.0402
79	0x246d	0.01729
80	0x27f1	0.03102
81	0xa856	-0.03387
82	0x298f	0.04343
83	0xa001	-0.00782
84	0x9e1a	-0.00596
85	0x1fc9	0.007603
86	0xac09	-0.06305
87	0x2a19	0.04764
88	0x295e	0.04193
89	0xa82b	-0.03256
90	0xa1c2	-0.011246
91	0xa507	-0.01964
92	0x1eda	0.00669
93	0xa040	-0.0083
94	0xa13d	-0.01023
95	0x9690	-0.001602
96	0x211c	0.00998
97	0xa576	-0.02133
98	0x31db	0.183
99	0x2090	0.00891
100	0xac28	-0.06494
101	0xac9c	-0.072
102	0x29a1	0.04398
103	0x288c	0.03552
104	0x236d	0.0145
105	0xa52c	-0.0202
106	0xa80b	-0.0316
107	0x23cc	0.01523
108	0x2c79	0.0699
109	0x27fa	0.03116
110	0x9573	-0.00133
111	0x2a8c	0.05115
112	0x2588	0.0216
113	0xa2e6	-0.01347
114	0x2c00	0.0625
115	0x184b	0.002096
116	0xaf61	-0.1153
117	0x282c	0.0326
118	0x3146	0.1648
119	0xb064	-0.1372
120	0x247d	0.01753
121	0x25cb	0.02263
122	0x22ab	0.01302
123	0xa67e	-0.02536
124	0xaf6b	-0.1159
125	0x331f	0.2225
126	0x3001	0.1251
127	0x197e	0.002682

arith.constant36 f2 [128, 32]
0	0xa7d4	-0.03058
1	0xaede	-0.1073
2	0x2be7	0.06174
3	0x3214	0.19
4	0xa76c	-0.02899
5	0x2aa3	0.05185
6	0x88de	-0.0001485
7	0x2200	0.01172
8	0xad94	-0.08716
9	0x303f	0.1327
10	0xb236	-0.1941
11	0x2cce	0.0751
12	0x30e4	0.1528
13	0xb1cc	-0.1812
14	0x2026	0.0081
15	0x2065	0.00858
16	0x2c3e	0.0663
17	0x29c7	0.04514
18	0x3464	0.2744
19	0x2336	0.014084
20	0xaaef	-0.05417
21	0xa5fb	-0.02336
22	0x18f0	0.00241
23	0x283c	0.03308
24	0x24f0	0.01929
25	0xa862	-0.03424
26	0x3006	0.1257
27	0x309f	0.1444
28	0xb00a	-0.1262
29	0x2e39	0.0972
30	0x2f9e	0.119
31	0x29b3	0.04453
32	0x2a4d	0.04922
33	0xaf6e	-0.1161
34	0x2f6a	0.11584
35	0xaa2d	-0.04825
36	0x3466	0.275
37	0xb274	-0.2017
38	0x9f6f	-0.00726
39	0xa23b	-0.01217
40	0x201d	0.00803
41	0x259b	0.0219
42	0x2100	0.009766
43	0xaed4	-0.1067
44	0x26ca	0.02652
45	0xa4e3	-0.01909
46	0xb3dd	-0.2457
47	0xaa9c	-0.05164
48	0xb043	-0.1332
49	0xa689	-0.02553
50	0xb165	-0.1686
51	0x2bda	0.06134
52	0xa9cc	-0.0453
53	0xb209	-0.1886
54	0xadb0	-0.08887
55	0xb192	-0.1741
56	0xae56	-0.099
57	0x9d06	-0.004906
58	0xa931	-0.04056
59	0x124d	0.000769
60	0xb11e	-0.1599
61	0x2d28	0.08057
62	0x2ae2	0.05377
63	0xb215	-0.1901
64	0xaf2c	-0.11206
65	0x2ed2	0.10657
66	0xb014	-0.1274
67	0x257d	0.02144
68	0x2d84	0.0862
69	0x2621	0.02394
70	0x1475	0.001088
71	0xabf8	-0.06226
72	0x2e0d	0.09454
73	0x29c6	0.0451
74	0xaa7d	-0.0507
75	0x3177	0.1708
76	0xa8a0	-0.03613
77	0xaed7	-0.1069
78	0x23d9	0.01533
79	0xa801	-0.03128
80	0x2d44	0.0823
81	0xb069	-0.1378
82	0x2bb9	0.06033
83	0x92ca	-0.0008287
84	0x3313	0.2211
85	0x3052	0.135
86	0xad3e	-0.0819
87	0x3161	0.1681
88	0xabec	-0.0619
89	0xacac	-0.073
90	0x2968	0.04224
91	0x2d8d	0.08673
92	0x2d27	0.0805
93	0xb030	-0.1309
94	0xaee7	-0.10785
95	0xae60	-0.0996
96	0xa809	-0.03152
97	0x2caa	0.0729
98	0x2993	0.04355
99	0xad07	-0.07855
100	0xaed5	-0.10675
101	0xb109	-0.1573
102	0x2b12	0.05524
103	0x2fa4	0.1194
104	0x3419	0.256
105	0xa606	-0.02353
106	0xaccc	-0.07495
107	0x312c	0.1616
108	0x2d35	0.08136
109	0xb4d4	-0.3018
110	0xad7e	-0.0858
111	0x2fc5	0.1214
112	0xacfa	-0.07776
113	0xa483	-0.01762
114	0xac8b	-0.071
115	0x305d	0.1364
116	0x214b	0.01034
117	0xa920	-0.04004
118	0xaf1d	-0.11115
119	0xa4ef	-0.01927
120	0xa526	-0.02011
121	0x3009	0.1261
122	0x3484	0.2822
123	0xb009	-0.1261
124	0xaf61	-0.1153
125	0xac54	-0.0676
126	0xaf67	-0.11566
127	0x2c1a	0.0641
128	0x3009	0.1261
129	0xa3eb	-0.015465
130	0x2e6e	0.10046
131	0x181e	0.00201
132	0xb286	-0.2039
133	0x244a	0.01675
134	0xb240	-0.1953
135	0xb014	-0.1274
136	0x3061	0.1368
137	0x2850	0.0337
138	0xb4d3	-0.3015
139	0x3023	0.1293
140	0x30ed	0.1539
141	0xabb5	-0.0602
142	0xafed	-0.12384
143	0x310b	0.1576
144	0x2cb2	0.07336
145	0x2c0a	0.0631
146	0xb311	-0.2208
147	0xb17a	-0.1711
148	0x281b	0.03207
149	0x320a	0.1887
150	0xb278	-0.2021
151	0x1f07	0.006863
152	0x3201	0.1876
153	0xaa98	-0.0515
154	0x2fb1	0.1202
155	0xb0f2	-0.1545
156	0xa6c7	-0.02647
157	0xb405	-0.2512
158	0xb0be	-0.1482
159	0x2830	0.0327
160	0x2383	0.01467
161	0xacaa	-0.0729
162	0xa9fb	-0.04672
163	0xb0d0	-0.1504
164	0x9c83	-0.004406
165	0x31bd	0.1793
166	0xb054	-0.1353
167	0x2dfe	0.0936
168	0x2ddb	0.0915
169	0x325d	0.1989
170	0x28a6	0.03632
171	0x2e0c	0.0945
172	0xac91	-0.07135
173	0xb088	-0.1416
174	0x2cc8	0.0747
175	0x257c	0.02142
176	0xa06f	-0.00866
177	0xaf5b	-0.1149
178	0x18b2	0.002293
179	0xa5f4	-0.02325
180	0x31b5	0.1783
181	0x96fe	-0.001707
182	0x2a3d	0.04874
183	0x2d9a	0.0875
184	0xa86a	-0.0345
185	0xa613	-0.02373
186	0xaba6	-0.05975
187	0x2b3d	0.05655
188	0xad7d	-0.08575
189	0x291c	0.03992
190	0x3157	0.1669
191	0xa63c	-0.02435
192	0xa539	-0.0204
193	0x2b48	0.0569
194	0xaa86	-0.05096
195	0xab9a	-0.0594
196	0xb12a	-0.1614
197	0xa8c5	-0.03726
198	0x9195	-0.0006814
199	0x2540	0.02051
200	0xa832	-0.03278
201	0x306f	0.1385
202	0x283a	0.03302
203	0xa8f6	-0.03876
204	0x2a9f	0.05173
205	0x22b9	0.01313
206	0xa508	-0.01965
207	0xa28d	-0.012794
208	0x2a0e	0.0473
209	0xb086	-0.1414
210	0xa99d	-0.04385
211	0xab81	-0.05862
212	0x2abc	0.0526
213	0xa1d3	-0.011375
214	0x1e5e	0.006218
215	0xa3fa	-0.01558
216	0xab3a	-0.05646
217	0xa7e3	-0.0308
218	0xb0f4	-0.1548
219	0x296f	0.04245
220	0xab4d	-0.05704
221	0xb141	-0.1642
222	0x2c1b	0.06415
223	0x2758	0.02869
224	0x30ef	0.1542
225	0x3194	0.1743
226	0x2997	0.04367
227	0x344c	0.2686
228	0x3201	0.1876
229	0xaff3	-0.1242
230	0x3148	0.165
231	0xb154	-0.1665
232	0x2e9d	0.10333
233	0x3137	0.163
234	0xb186	-0.1726
235	0xaed2	-0.10657
236	0xa135	-0.01017
237	0xb338	-0.2256
238	0xa804	-0.03137
239	0x2872	0.03473
240	0xab38	-0.0564
241	0xab10	-0.05518
242	0xb1f1	-0.1857
243	0xac42	-0.0665
244	0x3453	0.2703
245	0x313c	0.1636
246	0xb0de	-0.1521
247	0xabb4	-0.06018
248	0xab47	-0.05685
249	0x29e1	0.04593
250	0x2cf6	0.0775
251	0x2edb	0.1071
252	0x28d3	0.0377
253	0x2cc4	0.07446
254	0xb0d6	-0.1511
255	0xad82	-0.08606
